hackGT22/hand-gesture-recognition-mediapipe/model/keypoint_classifier/keypoint_classifier.tflite (tflite, 6808 bytes, 6 tensors)

sequential/dense/BiasAdd/ReadVariableOp f4 [20]
-0.41901922 -0.5705191 -0.14130913 -0.16267885 0.2822474 -0.29994777 -0.17097159 -0.2839173
-0.16998807 -0.49265224 -0.30980995 -0.29592982 -0.11970854 -0.42394832 -0.20598185 0.036526754
-0.7768952 0.12457541 -0.55227685 -1.0363222
00000000: b089 d6be 8a0d 12bf 57b3 10be 4995 26be
00000010: bb82 903e c192 99be 2d13 2fbe 9c5d 91be
00000020: 5a11 2ebe ea3c fcbe 699f 9ebe 1d84 97be
00000030: c029 f5bd c10f d9be e8ec 52be 149d 153d
00000040: 9be2 46bf 6421 ff3d 0462 0dbf 35a6 84bf

sequential/dense_2/BiasAdd/ReadVariableOp f4 [10]
-0.8483884 1.0659884 0.7180682 0.12567075 -0.264483 -0.52538145 0.38590834 -0.29061767
-0.29799035 -0.26917696
00000000: fb2f 59bf 4f72 883f 51d3 373f d5af 003e
00000010: 516a 87be 667f 06bf c795 c53e d7cb 94be
00000020: 3192 98be 90d1 89be

sequential/dense_1/BiasAdd/ReadVariableOp f4 [10]
-0.10121127 -0.43992037 1.4388566 0.012481758 0.4829082 -0.32758564 0.94967645 0.5768352
0.0944237 -0.202139
00000000: db47 cfbd 3e3d e1be 742c b83f 4a80 4c3c
00000010: be3f f73e 4eb9 a7be ff1d 733f 79ab 133f
00000020: 3661 c13d 87fd 4ebe

sequential/dense/MatMul f4 [20, 42]
-0.30990455 -0.17066877 0.20621495 0.25890818 -0.008392418 0.1807028 -0.64311373 0.1730207
-0.85273784 0.13725948 0.31290308 0.042034596 0.67204493 0.046925038 0.580104 0.05066511
0.41635743 0.0527114 0.118815154 0.04784747 0.45693868 0.009578181 0.27343485 -0.078667596
0.16052826 -0.04775084 -0.32528344 -0.061424486 -0.2770801 -0.07252594 -0.40103638 -0.085915715
-0.6363001 -0.079912305 -0.28517416 0.102181315 -0.2821574 -0.01589475 -0.5036142 -0.17408256
-0.57532007 -0.06869963 0.08113137 0.2903021 -0.13885508 0.21757738 -0.0080897715 0.098358154
0.019606605 0.055662856 0.07909476 0.07297961 -0.1803993 0.019536182 0.060990945 0.016164731
0.06616785 0.0065014353 0.034519695 -0.00031866546 0.12090354 0.047633544 -0.0925436 0.013860313
0.022014318 0.012813273 -0.058706652 0.009709194 -0.024085626 0.023966415 0.10475104 0.022535581
0.087948084 -0.16194484 -0.36290172 0.1390521 0.15123467 0.052415676 0.11386406 0.06461387
-0.09338755 -0.052445635 -0.0013650886 -1.7502985 0.09509426 0.054800183 0.8187661 0.08400162
1.0196987 -0.084008865 1.0840683 -0.12906751 1.1203984 -0.18785158 -0.16897835 0.028954322
-0.2105098 0.013023506 -0.39973065 0.0029217463 -0.2665909 0.022353388 0.034289118 0.009634543
0.12224017 0.11056724 -0.016206872 0.14558998 0.27955723 0.13328946 0.045801193 0.026424643
-0.15524486 0.100316286 -0.15414627 0.118559696 -0.0342661 0.082075246 -0.2427666 0.22734886
-0.54238474 0.07522137 -0.6037745 0.07323721 -0.76376504 0.05077153 -0.041437447 0.20792973
0.21499562 0.3185007 0.012774846 0.17884831 -0.25282425 0.19683011 -0.71544075 0.22895876
0.16226487 0.20896427 -0.059857257 0.09574965 -0.026209248 -0.013227572 -0.10699108 -0.04371872
0.10345116 0.17927127 0.057294987 -0.020967405 0.18302876 -0.42679188 0.41415763 -0.8584829
-0.08886685 0.21245876 0.030152924 0.043973133 0.39289996 -0.23891439 0.69078237 -0.24170606
-0.19152763 0.30133072 -0.20522013 0.18209633 0.31174 -0.070746504 0.2819213 -0.4296145
0.19474661 0.23761368 0.3132961 -0.13177015 0.6419592 0.25252748 1.3538655 0.15092279
1.8103923 0.22610614 -0.47684696 0.21250577 -0.27515253 0.13026358 -0.2737484 -0.07641147
0.108739264 -0.075544044 -0.07841569 0.11638724 -0.29379126 -0.1581415 -0.43308365 -0.4841352
-0.20848586 -0.46581593 0.0022099628 0.36611933 -0.2940516 0.18686725 0.1500531 -0.025982656
0.1564538 -0.17146355 -0.037291847 0.31387365 -0.15980746 0.31719732 -0.2720598 0.046845924
-0.4598466 0.11907045 -0.27159032 0.27638108 0.67720056 0.29311106 0.615751 0.007761066
1.1087329 -0.016869113 0.9373044 -0.07713181 0.030484896 0.11031339 -0.19595726 0.09953671
-0.07305716 0.06805828 -0.1712876 0.05927774 0.13436818 0.12127177 -0.020576326 0.067281306
0.13234708 0.008376149 0.056054275 0.012182226 -0.24887142 0.059555296 -0.210055 0.03763308
0.0075416183 0.035985388 0.10400009 -0.011903665 -0.30607197 0.17091455 -0.64437324 0.042408455
-0.65289456 -0.019072043 -0.7941082 -0.24229549 0.30114627 0.24665213 0.07474766 0.5978098
00000000: cfab 9ebe cbc3 2ebe 032a 533e 9d8f 843e
00000010: 5a80 09bc 280a 393e 1aa3 24bf 572c 313e
00000020: 074d 5abf c08d 0c3e d534 a03e 782c 2c3d
00000030: 230b 2c3f 7834 403d b281 143f 3886 4f3d
00000040: cd2c d53e e9e7 573d 5c55 f33d b5fb 433d
00000050: def3 e93e ceed 1c3c a7ff 8b3e 7a1c a1bd
00000060: 8561 243e 6396 43bd 8d8b a6be 3e98 7bbd
00000070: 71dd 8dbe 7b88 94bd a454 cdbe 94f4 afbd
00000080: 90e4 22bf 10a9 a3bd 5902 92be 7044 d13d
00000090: ef76 90be b535 82bc dcec 00bf b342 32be
000000a0: 2d48 13bf 64b2 8cbd 3428 a63d 7aa2 943e
000000b0: 0730 0ebe 9bcc 5e3e f68a 04bc 0070 c93d
000000c0: 089e a03c bcfe 633d 6ffc a13d 5576 953d
000000d0: 98ba 38be 580a a03c a4d1 793d e66b 843c
000000e0: 0283 873d fe09 d53b 8664 0d3d 8e12 a7b9
000000f0: 469c f73d 641b 433d 8087 bdbd 5e16 633c
00000100: 5f57 b43c c3ee 513c 6376 70bd 5013 1f3c
00000110: 384f c5bc 3755 c43c b787 d63d 8a9c b83c
00000120: 201e b43d ded4 25be 41ce b9be ac63 0e3e
00000130: 43dd 1a3e d2b1 563d 8f31 e93d 4754 843d
00000140: f941 bfbd 3cd1 56bd c6ec b2ba c809 e0bf
00000150: c8c0 c23d 2876 603d a89a 513f 0b09 ac3d
00000160: 7d85 823f d70c acbd c0c2 8a3f 462a 04be
00000170: 3769 8f3f 2a5c 40be a908 2dbe 9d31 ed3c
00000180: e28f 57be 8b60 553c 7fa9 ccbe c57a 3f3b
00000190: 9a7e 88be 741e b73c bf72 0c3d 34da 1d3c
000001a0: 0e59 fa3d 1471 e23d 46c4 84bc 8a15 153e
000001b0: 2022 8f3e 087d 083e 089a 3b3d 7e78 d83c
000001c0: 82f8 1ebe a072 cd3d 85d8 1dbe 6dcf f23d
000001d0: 9c5a 0cbd 1117 a83d cf97 78be 24ce 683e
000001e0: bad9 0abf a90d 9a3d f790 1abf 64fd 953d
000001f0: 1b86 43bf cff5 4f3d 50ba 29bd 88eb 543e
00000200: d027 5c3e 8612 a33e 964d 513c 0324 373e
00000210: 2e72 81be d58d 493e 2027 37bf 2a74 6a3e
00000220: c328 263e bbfa 553e e22c 75bd 6418 c43d
00000230: c7b4 d6bc 75b8 58bc 241e dbbd 6712 33bd
00000240: 34de d33d e392 373e 26ae 6a3d d6c3 abbc
00000250: e46b 3b3e 7784 dabe 780c d43e 89c5 5bbf
00000260: d3ff b5bd ca8e 593e 4403 f73c 2c1d 343d
00000270: 2f2a c93e f9a5 74be 1dd7 303f cb81 77be
00000280: d21f 44be 0548 9a3e 3a25 52be 7677 3a3e
00000290: 639c 9f3e 8be3 90bd fd57 903e 6ff6 dbbe
000002a0: a86b 473e 0051 733e 5968 a03e c1ee 06be
000002b0: 7057 243f 484b 813e 774b ad3f 818b 1a3e
000002c0: efba e73f 5e88 673e 4925 f4be 1d9b 593e
000002d0: cbe0 8cbe d163 053e c028 8cbe 9e7d 9cbd
000002e0: b1b2 de3d d6b6 9abd 6898 a0bd 6f5c ee3d
000002f0: cf6b 96be d8ef 21be 24bd ddbe 92e0 f7be
00000300: 517d 55be 6d7f eebe 06d5 103b fe73 bb3e
00000310: ee8d 96be 215a 3f3e 85a7 193e 94d9 d4bc
00000320: 6d35 203e 2494 2fbe 56bf 18bd 0cb4 a03e
00000330: 91a4 23be b067 a23e 6c4b 8bbe 83e1 3f3d
00000340: 0371 ebbe 35db f33d e30d 8bbe d281 8d3e
00000350: 045d 2d3f a712 963e dca1 1d3f 8a50 fe3b
00000360: f6ea 8d3f 1831 8abc 2ef3 6f3f 48f7 9dbd
00000370: 76bb f93c fdeb e13d 05a9 48be e7d9 cb3d
00000380: fe9e 95bd 2462 8b3d 0466 2fbe 37cd 723d
00000390: d097 093e 555d f83d af8f a8bc c8ca 893d
000003a0: fe85 073e 1e3c 093c 2b99 653d f697 473c
000003b0: 26d8 7ebe 41f0 733d a818 57be 2525 1a3d
000003c0: ae1f f73b 6a65 133d 00fe d43d 9707 43bc
000003d0: 77b5 9cbe 3904 2f3e a5f5 24bf 7db4 2d3d
000003e0: 1924 27bf f93c 9cbc ad4a 4bbf 4f1c 78be
000003f0: d82f 9a3e 6092 7c3e 4d15 993d 100a 193f

sequential/dense_1/MatMul f4 [10, 20]
-0.18223171 1.0331467 -0.010827785 0.2246059 0.14696622 -0.3103 -0.0066524865 0.5062159
0.5827131 0.046232525 0.23004383 0.4817232 0.7294725 0.0602214 -0.25606996 -0.044914883
0.61022776 -0.06824957 0.6307693 0.66105133 0.1668654 0.8563325 1.066704 0.02292635
0.19057201 1.3510034 -0.10920919 0.34184635 0.05377818 1.2731311 -0.048075378 0.35353273
0.40393862 0.4919504 -0.34051257 0.14872095 0.25716028 0.03203325 0.98946035 0.51502925
-0.15609476 -0.6260367 0.17934649 -0.14430211 0.30601007 -0.19002834 -0.804981 0.7444758
-0.46725306 0.051512245 0.38755745 -0.68350387 -1.3176006 0.48103112 0.09633404 -0.23174562
-0.17851776 0.52979577 0.40776858 0.8385687 0.35966206 -0.49979085 0.1649075 0.048560906
0.032950543 0.1939503 -0.2391049 -0.038758494 0.11127159 0.97287154 0.09423807 -0.14043336
0.19976331 -0.35087237 0.6118881 0.06637614 -0.0152941365 -0.3810357 -0.09125686 0.17405203
0.0032603783 -0.32111523 0.4002638 0.7264791 0.57872903 0.50819826 -0.679436 0.09440423
0.5070135 0.111062855 -0.14257932 -0.3022749 -0.8686638 0.25980443 -0.25453797 0.8652328
-0.46082664 0.035771757 0.3010659 -0.33071724 -0.7228527 0.3197277 0.17309977 0.27055666
-0.8472416 -0.22794186 0.827041 1.0002131 -0.65859973 -0.5648016 -0.04310598 0.4203842
0.30510142 -0.7029547 0.15585646 -0.17088136 0.03091342 0.43521598 1.1681875 0.10858877
0.5217413 -0.017156772 -0.5510124 0.6441024 0.20147613 -0.6009618 0.88820076 -0.20229411
0.46512663 -0.39264706 0.7333371 0.31114024 0.9728198 0.10710489 -0.54275066 0.7650707
0.005109278 0.36016807 0.1778566 -0.55723435 -0.09179449 -0.14514183 0.24380998 0.287443
-1.2177418 0.310824 0.16725099 1.0007092 -0.04045977 0.08310339 -1.09464 0.028883928
-0.020049797 -0.8895138 0.75437105 -0.03821146 0.13898143 0.23815395 0.9344543 -0.16729237
-0.56810856 0.6077252 0.9005989 0.04610541 0.65714246 0.5760913 0.15019993 0.09488427
0.62028 0.08207648 -0.54122865 0.32056937 0.8195114 0.5815458 0.6304806 0.46251342
0.08853606 -0.03570698 -0.19951512 -0.4385523 1.4290355 1.6059825 -0.44512418 0.6980992
0.17301585 -0.4731015 0.5758509 -0.13968702 0.83039325 0.66006225 0.77753234 1.2744169
1.6140299 0.3154037 0.33642882 0.4746451 1.5710278 0.32739952 0.0048937527 1.022725
00000000: f39a 3abe 273e 843f 0667 31bc 17ff 653e
00000010: 507e 163e a4df 9ebe 1afd d9bb 5d97 013f
00000020: b02c 153f 515e 3d3d 9c90 6b3e 6ca4 f63e
00000030: b6be 3a3f b7aa 763d 9a1b 83be abf8 37bd
00000040: e337 1c3f 6ec6 8bbd 197a 213f a93a 293f
00000050: c3de 2a3e 9b38 5b3f c289 883f 0ad0 bb3c
00000060: 4f25 433e aeed ac3f 11a9 dfbd 7c06 af3e
00000070: 8246 5c3d f6f5 a23f b0ea 44bd 3e02 b53e
00000080: 0bd1 ce3e ece0 fb3e aa57 aebe 4e4a 183e
00000090: 83aa 833e 4c35 033d 464d 7d3f f5d8 033f
000000a0: 4ed7 1fbe f143 20bf 9ba6 373e efc3 13be
000000b0: 5aad 9c3e ca96 42be 3c13 4ebf f795 3e3f
000000c0: cb3b efbe 81fe 523d ee6d c63e 1cfa 2ebf
000000d0: 23a7 a8bf b649 f63e c84a c53d b94e 6dbe
000000e0: 5ccd 36be b2a0 073f 0bc7 d03e 70ac 563f
000000f0: a025 b83e 96e4 ffbe 83dd 283e cde7 463d
00000100: 26f7 063d e89a 463e ead7 74be 3ac1 1ebd
00000110: 5ce2 e33d 1c0e 793f e4ff c03d c3cd 0fbe
00000120: c18e 4c3e 8ba5 b3be b3a4 1c3f 37f0 873d
00000130: 4294 7abc 1c17 c3be e0e4 babd b23a 323e
00000140: 12ac 553b 3769 a4be 60ef cc3e 89fa 393f
00000150: 9627 143f 4819 023f 85ef 2dbf 0157 c13d
00000160: a3cb 013f ec74 e33d 5000 12be c7c3 9abe
00000170: c060 5ebf 1605 853e cd52 82be e67f 5d3f
00000180: 78f1 ebbe 6885 123d 4f25 9a3e c553 a9be
00000190: e00c 39bf 59b3 a33e 1141 313e 6786 8a3e
000001a0: d3e4 58bf 9769 69be f5b8 533f fc06 803f
000001b0: fe99 28bf d696 10bf e58f 30bd 993c d73e
000001c0: 4136 9c3e d7f4 33bf d698 1f3e 86fb 2ebe
000001d0: 243e fd3c a1d4 de3e 2b87 953f ca63 de3d
000001e0: d690 053f 5c8c 8cbc 260f 0dbf e5e3 243f
000001f0: c24f 4e3e a2d8 19bf 2061 633f 3026 4fbe
00000200: 1425 ee3e 0909 c9be fbbb 3b3f c64d 9f3e
00000210: b80a 793f cf59 db3d b5f1 0abf acdb 433f
00000220: bb6b a73b f367 b83e 0a20 363e e9a6 0ebf
00000230: c0fe bbbd 0fa0 14be 53a9 793e bb2b 933e
00000240: f7de 9bbf 5324 9f3e d843 2b3e 3d17 803f
00000250: 25b9 25bd 1c32 aa3d 2a1d 8cbf fd9d ec3c
00000260: 793f a4bc 2db7 63bf 761e 413f 9f83 1cbd
00000270: 2651 0e3e a1de 733e 6638 6f3f b14e 2bbe
00000280: 906f 11bf e193 1b3f a68d 663f 07d9 3c3d
00000290: 7d3a 283f b87a 133f 03ce 193e af52 c23d
000002a0: acca 1e3f b717 a83d f68d 0abf ab21 a43e
000002b0: 80cb 513f 30e0 143f 2d67 213f 8fce ec3e
000002c0: 6552 b53d 7b41 12bd b14d 4cbe ed89 e0be
000002d0: a3ea b63f d690 cd3f 51e7 e3be a1b6 323f
000002e0: 112b 313e 5c3a f2be f76a 133f 1d0a 0fbe
000002f0: a794 543f d7f9 283f 5c0c 473f 1820 a33f
00000300: 8898 ce3f 987c a13e 6640 ac3e af04 f33e
00000310: 7017 c93f e9a0 a73e c65b a03b a7e8 823f

sequential/dense_2/MatMul f4 [10, 10]
0.1712739 0.81798637 0.67369986 0.50466776 -0.13266307 0.19373645 -1.0356935 0.3279109
-0.17342512 0.40586534 -1.3627986 -0.19995031 1.459303 -0.7204372 0.081802905 -0.613441
-0.6588541 0.40535516 0.10846795 -1.5392547 -1.3742195 -1.4454138 0.535597 0.27280006
0.8594117 -1.1742923 0.35031453 0.023143113 -0.10720109 -0.15340592 -0.4173549 0.17171092
-0.17907828 -0.978886 0.89240634 0.532983 0.105512805 0.7159932 0.34606612 -0.56019294
-0.0013549573 0.7017901 -0.55099976 0.015260514 -0.090641156 0.59307027 0.32535854 -0.5375935
-0.05474643 0.5646401 -0.18214801 0.29950616 -0.69710284 0.061021835 0.016699465 0.9335174
-0.30774978 0.6839763 0.9492768 0.4665476 -0.2822115 -0.79890525 -0.21481411 -0.38216537
-0.49796757 -0.6307091 0.9265583 -0.5909601 0.33388415 0.6258371 -0.6528841 -0.1046691
-1.4778674 -0.05502464 -0.9966914 -0.10816177 -0.3375502 -0.7503765 -1.1045288 -0.40960094
0.36992085 -0.3387063 -1.8440171 0.40266562 -0.09448004 -0.3583461 -0.20478013 -1.2071501
-0.41777813 -0.6751862 -0.16860622 -0.5414577 -1.5788585 0.10894284 -0.60382277 0.09445894
-1.0720423 -0.97295654 -0.25415194 -0.54184103
00000000: 6d62 2f3e 8e67 513f 9877 2c3f e831 013f
00000010: d4d8 07be d962 463e 9b91 84bf f0e3 a73e
00000020: 5b96 31be 95cd cf3e 2f70 aebf c6bf 4cbe
00000030: 71ca ba3f 936e 38bf 4888 a73d 780a 1dbf
00000040: aaaa 28bf b68a cf3e 7224 de3d 4c06 c5bf
00000050: 6de6 afbf 5203 b9bf e31c 093f 73ac 8b3e
00000060: 6802 5c3f 364f 96bf 6d5c b33e a096 bd3c
00000070: 3f8c dbbd 7116 1dbe 8baf d5be fdd4 2f3e
00000080: 4c60 37be 4698 7abf be74 643f 9371 083f
00000090: 1917 d83d 554b 373f 942f b13e ce68 0fbf
000000a0: d398 b1ba 84a8 333f 520e 0dbf 3c07 7a3c
000000b0: 12a2 b9bd 74d3 173f 6595 a63e ba9f 09bf
000000c0: cb3d 60bd 418c 103f 0285 3abe df58 993e
000000d0: 5575 32bf 08f2 793d 51cd 883c fffa 6e3f
000000e0: 6191 9dbe 1219 2f3f ce03 733f 54df ee3e
000000f0: 077e 90be 0e85 4cbf 3bf8 5bbe 2eab c3be
00000100: 9bf5 febe 2776 21bf ed32 6d3f 2949 17bf
00000110: ddf2 aa3e dc36 203f 6a23 27bf c15c d6bd
00000120: c22a bdbf 8461 61bd 2b27 7fbf eb83 ddbd
00000130: 61d3 acbe ad18 40bf 3361 8dbf 37b7 d1be
00000140: 4466 bd3e ea6a adbe c108 ecbf 302a ce3e
00000150: c07e c1bd 2479 b7be e2b1 51be e583 9abf
00000160: 04e7 d5be 01d9 2cbf 1ca7 2cbe f99c 0abf
00000170: 0918 cabf 6c1d df3d 2194 1abf b073 c13d
00000180: af38 89bf ae13 79bf 3420 82be 18b6 0abf
